model_vbp5_quantization.tflite (tflite, 61112 bytes, 9 tensors)

arith.constant f4 [128, 4]
00000000: 645b eebc f56b 39be 890e 743d 7120 b7bd
00000010: 78af b13d 7445 f33d c567 f23d 2f4b 233e
00000020: 2f8c c53d ff00 06bd 6be8 923d 9971 95bd
00000030: b657 973d db04 863d 17ac f83d 12a5 7bbd
00000040: 7083 4e3e 8536 8e3e d19a 8c3c fced a3bd
00000050: 588e ac3d 0af1 9dbd 8032 e2bc 146d 6cbd
00000060: 0c21 f53d 98f4 213e ec1b 10be d61e 113e
00000070: 8af4 1d3e 000d 35bb 0a62 15be 9272 2fbe
00000080: 11ab ccbc dff8 1c3e 6909 043e f2f4 703d
00000090: 5c04 0f3e 8803 403e f285 d5bd 4450 06bd
000000a0: 6a96 4ebe 1714 b93d eb17 d93d 30ea 2e3e
000000b0: 0059 9f3b 44ce 29be d8d7 a73c 7a41 3cbe
000000c0: 32ed 3e3e 69a8 4abe fefb c4bd d8a5 0d3e
000000d0: 2cbf 83be ea80 143e 4372 f93d 9dd4 623e
000000e0: d71e ba3d 0e7a 9b3d 7fbe 453e a96b d8bd
000000f0: ea3c ed3e c05a 46bf b4e6 3e3b 19b2 35bd
00000100: 480e 2bbe a07b 74bc 1e0b b6bd 1824 fb3d
00000110: d8a7 4ebd 404b 343e df9c 423d a59d 323e
00000120: a286 8bbd e786 3fbe 50e0 2cbd c04d d83d
00000130: 82db 14be cc92 5abd 7cf5 0abe 404b 88bc
00000140: 53e0 8bbe 27ea a3be 2027 ec3c b504 dc3d
00000150: cc08 f13d 3c4e 013e 7413 d0bd a4a3 163d
00000160: 6501 a13c ee4b 2a3e f335 a13d a2e2 bebc
00000170: 90a9 9fbd 20a6 3ebd 4243 00be 2838 b13d
00000180: edb2 4dbe d8ea 22be 0829 b3bc 26a6 19be
00000190: 28b0 903d c09e 14bc a7b7 04be b4ea 84bd
000001a0: 8a93 033e 00fd efbc 0a27 f1bd 5077 423e
000001b0: 652d 09be 2f59 1e3d d691 c63d e9d4 353c
000001c0: 4533 39be b0ca f93c 42e9 43be e840 88bc
000001d0: 2018 193d 4f5c a33d 55c0 103e 0cdf a0bb
000001e0: 8dff 58be 68ad 04be a1d9 f9bd 108f 053e
000001f0: acf8 013e 7829 04be af03 5dbd a40b 753e
00000200: 9e96 323e b070 2c3e 98c2 c4bc a066 97bc
00000210: 38cc 863e c58a 40be bd8a fd3d afdd cebd
00000220: 93fd 55be 36f6 8cbd cd2b 0d3e 518a 713e
00000230: 2686 563e f6a5 96bd 809e acba c88b f5bd
00000240: 113d 8fbd f0a2 613e 537d 7e3d 30fc f43d
00000250: 1d84 4cbd b93a 213e ba8b 7cbd b6d6 8a3e
00000260: 8d4e 963e 5d32 36be 1d97 f43c 8d94 da3d
00000270: a65c 0f3e e836 9abc 8058 973b 6a26 9ebd
00000280: d2cd 883d 8aa9 58be 3fb5 cd3d a2de a73d
00000290: 5738 53be eecf 453e f8fb b1bc 7fae 57be
000002a0: 8021 08bd 226a 773c 2075 433d ddc6 213e
000002b0: dc6a 613e 2829 8a3d 796c e63d f824 653e
000002c0: f27c 713d 0bb3 173e 28e8 f43d 5a81 d93d
000002d0: fcca 323e ccaf c63d 3c67 12be 88b2 243e
000002e0: a8aa 543d 85d8 1fbe c31a 59be 2426 483e
000002f0: 6795 f9bc 08be 353e ed0a cb3d 696e dd3d
00000300: ea8d 44bd cc5f ba3a d7ea 063d ea03 e63d
00000310: 4039 de3b cec7 593e ad83 3dbe 85d5 f4bd
00000320: 40b5 d1bb 5096 8a3c 0b08 3bbe cbaf 4ebe
00000330: 7877 833d cc87 523e ac20 18be 30ef 403e
00000340: ea7c 543e 98c7 333d 9c1d 21be 900a 7b3c
00000350: 818c 12be f288 203e a82f b4bd d666 3b3e
00000360: 44c0 c73d dc85 a7bd 3c6b ebbd b0fd 253d
00000370: c0f8 5c3c 9cd8 3cbe 18cf 2dbd 0c69 22be
00000380: 1ce8 df3d 7126 d0bd 349d d73d 18e3 58be
00000390: b0b9 61be daca 89bd e57c ff3d e407 4e3e
000003a0: 103f 1dbd 50ad 55bc c08d 7b3b 9633 a2bd
000003b0: 3888 063e 3d1a afbe bdf0 cd3d 92d7 fe3d
000003c0: 590d 9b3c 1c67 5d3d 584e 043e 72e5 09be
000003d0: 3cd7 febd 60b7 383e 6c31 65bd d0fa 37bd
000003e0: f09e 793e 0a02 d4bd 433b f83d 7bbc 1ebe
000003f0: 6710 9bbd 848e febd 791b 413d e4c0 433d
-0.029096313 -0.18107589 0.059584174 -0.089417346 0.08676046 0.118784815 0.11836199 0.15946649
0.096458785 -0.032715794 0.071732365 -0.07297058 0.073897764 0.06543895 0.121421985 -0.06143672
0.20167327 0.2777597 0.017163666 -0.08004376 0.084255874 -0.0771199 -0.02761197 -0.057721213
0.11969194 0.15815961 -0.14073151 0.14171919 0.15425315 -0.0027626157 -0.1458818 -0.17133549
-0.024983915 0.15329312 0.12894215 0.058827348 0.13966507 0.18751347 -0.10425939 -0.03279139
-0.20174566 0.09037035 0.10600265 0.17081523 0.0048629045 -0.1658259 0.020488665 -0.18384352
0.1864517 -0.19790806 -0.09618376 0.13832796 -0.2573179 0.14502302 0.12179997 0.22151418
0.090879135 0.075916395 0.1931095 -0.105674095 0.46335536 -0.77482224 0.002912921 -0.0443593
-0.16704667 -0.014922053 -0.08888839 0.12262744 -0.050453037 0.1760683 0.047512885 0.17442949
-0.068127885 -0.18703805 -0.04220611 0.10561705 -0.1453686 -0.053362653 -0.13570207 -0.016637444
-0.27319583 -0.32014582 0.02882725 0.10743085 0.11769256 0.126275 -0.101599604 0.036777154
0.019653985 0.16630527 0.07871618 -0.023301426 -0.07796013 -0.046545148 -0.12525657 0.08653289
-0.20087786 -0.15909898 -0.021870151 -0.15004787 0.07064849 -0.009071052 -0.12960683 -0.064900786
0.1284925 -0.029295444 -0.11775024 0.18990827 -0.13396223 0.03865927 0.09695785 0.011098125
-0.18085964 0.030492157 -0.1913195 -0.016632512 0.037376523 0.07976591 0.14135869 -0.0049094018
-0.21191235 -0.12956774 -0.121997125 0.13042855 0.12692517 -0.12906444 -0.05395859 0.23930222
0.17440268 0.16839862 -0.02401857 -0.018481553 0.26327682 -0.18802936 0.12379978 -0.101008765
-0.20897512 -0.068828985 0.1378624 0.2358792 0.20949611 -0.07355873 -0.0013169795 -0.11989552
-0.06994069 0.22034812 0.062131237 0.119621634 -0.04993068 0.15745057 -0.06165669 0.27116936
0.29356804 -0.1779265 0.029857213 0.10672865 0.14000186 -0.01882501 0.0046187043 -0.07722171
0.06679882 -0.21158424 0.100443356 0.08196761 -0.2062696 0.193176 -0.021726593 -0.21062659
-0.033235073 0.015100988 0.04771912 0.15798517 0.2201342 0.06746131 0.11251158 0.22377384
0.058957048 0.14814393 0.11958343 0.10620375 0.17460245 0.09701499 -0.14297193 0.1608373
0.051920563 -0.1560994 -0.21201615 0.195458 -0.030466748 0.17748272 0.09914193 0.10812075
-0.047986902 0.0014219224 0.032938804 0.11231215 0.006781727 0.21267626 -0.18507262 -0.11954788
-0.0063997805 0.016917378 -0.18264787 -0.20184247 0.06419271 0.20559615 -0.14856213 0.18841243
0.20750776 0.04389152 -0.15733951 0.0153223425 -0.1431141 0.1567724 -0.08798152 0.18300948
0.09753469 -0.081798285 -0.11495063 0.04052514 0.013487041 -0.18442005 -0.042433828 -0.15860385
0.10932943 -0.10163582 0.10528031 -0.2118038 -0.2204349 -0.06728144 0.124749936 0.20120198
-0.03839022 -0.013041809 0.003838405 -0.079199955 0.13137901 -0.34199706 0.10055683 0.124434605
0.018927263 0.05405341 0.12920511 -0.13466433 -0.124433964 0.18038702 -0.055955335 -0.044916928
0.24377036 -0.103519514 0.12120678 -0.15501587 -0.07571488 -0.124295264 0.04714534 0.047791377

arith.constant1 f4 [128]
00000000: ff5c 40bc 6c0d 353b 6260 b6bc 602b e03b
00000010: bb41 05bd 0000 0000 0000 0000 0000 0000
00000020: 0c53 7dbc 0000 0000 1b22 773a 0000 0000
00000030: 0000 0000 b830 a13b 0187 d4bc e91b 3d3d
00000040: 0000 0000 04f1 c53c 0000 0000 0000 0000
00000050: 3119 a0bc 0000 0000 2e41 77bc 0000 0000
00000060: 0000 0000 0000 0000 0000 0000 829e 1e3c
00000070: 0000 0000 93ef b7bc 0000 0000 75f1 823c
00000080: 0000 0000 c4d4 11bd 2c80 a63c 0000 0000
00000090: bd5b 163a 7a0f 1e3d 7745 a9bc 0000 0000
000000a0: e25f c6bc 0000 0000 74c0 743c 9c6a 043c
000000b0: e434 4a3a 0000 0000 0000 0000 6fbf 1fbd
000000c0: 4dff acbc 0000 0000 0000 0000 0000 0000
000000d0: 0000 0000 0000 0000 0000 0000 0000 0000
000000e0: 4057 8abc 1dd9 453c 0000 0000 8744 0ebd
000000f0: 014a 203c 0000 0000 bbbc 0bbd 5f8d bdbc
00000100: dd1d fb3b 0000 0000 0000 0000 0000 0000
00000110: ce14 75bc 5207 6fbc d9d4 963c a942 9ebb
00000120: 0000 0000 7b7c 9bbc 0000 0000 0000 0000
00000130: 0000 0000 8edb 373c 2fcb a33a 0000 0000
00000140: 11e7 24bd 08c9 5f3c 8472 9f3b 0000 0000
00000150: f435 333c 0000 0000 0000 0000 0000 0000
00000160: 7989 9fbb 0000 0000 0000 0000 dcbf 933c
00000170: 0000 0000 292a b63c e6db 08bc 0000 0000
00000180: d5e7 c63b 8a17 503b 92e9 cebb 3f9b 853c
00000190: 2cf4 0f3c e268 26bc a2f1 963c 0000 0000
000001a0: 0000 0000 55d6 07bc 0000 0000 ee02 8cbc
000001b0: 0000 0000 0000 0000 0000 0000 a717 e3bc
000001c0: f548 8ebc 0000 0000 0000 0000 0000 0000
000001d0: 4750 903b 0000 0000 74c3 3f3c 0000 0000
000001e0: ceb2 bdbc 8cc9 a2bc 0000 0000 85c1 6bbc
000001f0: 2799 f0bb 72f8 37bc 0000 0000 7207 31bc
-0.011740922 0.0027626408 -0.022262756 0.006841108 -0.03253339 0.0 0.0 0.0
-0.015461694 0.0 0.00094273844 0.0 0.0 0.004919138 -0.025943281 0.046169195
0.0 0.024162777 0.0 0.0 -0.019543262 0.0 -0.015091224 0.0
0.0 0.0 0.0 0.009681346 0.0 -0.022453105 0.0 0.015984276
0.0 -0.0356033 0.020324789 0.0 0.0005735716 0.03858898 -0.020663006 0.0
-0.024215642 0.0 0.0149384625 0.008082058 0.000771357 0.0 0.0 -0.039000925
-0.02111783 0.0 0.0 0.0 0.0 0.0 0.0 0.0
-0.016887307 0.01207569 0.0 -0.03473332 0.009783269 0.0 -0.034115534 -0.0231387
0.007663472 0.0 0.0 0.0 -0.0149585735 -0.014589148 0.01841204 -0.004829724
0.0 -0.018980255 0.0 0.0 0.0 0.0112217795 0.0012496467 0.0
-0.040259425 0.013658769 0.0048659462 0.0 0.010938156 0.0 0.0 0.0
-0.004868683 0.0 0.0 0.018035822 0.0 0.0222369 -0.008353209 0.0
0.006070117 0.0031752312 -0.006314465 0.016309379 0.008786242 -0.010156842 0.018425766 0.0
0.0 -0.008290847 0.0 -0.01709124 0.0 0.0 0.0 -0.02772124
-0.017368773 0.0 0.0 0.0 0.004404101 0.0 0.0117043145 0.0
-0.02315655 -0.019871496 0.0 -0.0143894 -0.007342476 -0.011228668 0.0 -0.010804998

arith.constant2 f4 [128]
00000000: 0000 0000 0000 0000 0000 0000 0000 0000
00000010: 0000 0000 0000 0000 0000 0000 56cf 28bc
00000020: 0000 0000 0000 0000 0000 0000 0000 0000
00000030: c24e 13bc c261 bcbb 0000 0000 0000 0000
00000040: 0000 0000 0000 0000 0000 0000 3fc4 e2bb
00000050: 0000 0000 0000 0000 0000 0000 0000 0000
00000060: 425b 9e3c 0000 0000 8fdc 623c 0000 0000
00000070: a9d7 a13c c66c acbc 0000 0000 2ad5 03bc
00000080: 0000 0000 6a96 83bc 4c7a 0cbc c6ac 633c
00000090: 9bff 4c3c 0000 0000 821c 7d3c 0000 0000
000000a0: 0000 0000 d19e a43c 0000 0000 0000 0000
000000b0: 0000 0000 0000 0000 35a1 8c3b 0000 0000
000000c0: 0000 0000 0000 0000 9415 87bc dd0a 36bc
000000d0: 0000 0000 0000 0000 0000 0000 2417 033c
000000e0: 1e68 933c 0000 0000 33f0 813b 0000 0000
000000f0: 5178 2bbc 0000 0000 9180 ac3c d0b8 193c
00000100: be14 2fbc 0000 0000 f347 103c c131 303c
00000110: 5a13 57bc 0000 0000 0000 0000 9149 903c
00000120: 735e 53bb 0000 0000 0000 0000 0000 0000
00000130: 0000 0000 0000 0000 6fbf dabc 60ab 94bc
00000140: c4a7 c4bb 0000 0000 0000 0000 9a0f 3db7
00000150: 0000 0000 1cbe 2ebc 0000 0000 9350 d8bb
00000160: 08c5 443c ece1 883b 26d5 18bc 0000 0000
00000170: 0000 0000 c796 453b 5cd5 b3bc 0000 0000
00000180: 0000 0000 0000 0000 28c6 843c 0000 0000
00000190: 0000 0000 6bc7 fabb 0000 0000 3639 1e3c
000001a0: 3a26 8e3c 0000 0000 0000 0000 0000 0000
000001b0: 0000 0000 0000 0000 131a 1fbc a327 ffbb
000001c0: 0000 0000 42a5 aa3b edf8 a6bc 0000 0000
000001d0: 0de6 b6bb 0000 0000 0000 0000 0000 0000
000001e0: 68cb 5c3b 581d b73c 052a 04bc 0000 0000
000001f0: 661b 0dbc 0000 0000 0000 0000 9bd7 e1bc
0.0 0.0 0.0 0.0 0.0 0.0 0.0 -0.010303339
0.0 0.0 0.0 0.0 -0.008990945 -0.0057489583 0.0 0.0
0.0 0.0 0.0 -0.006920367 0.0 0.0 0.0 0.0
0.019330624 0.0 0.013846531 0.0 0.019756155 -0.021047961 0.0 -0.008046428
0.0 -0.016062934 -0.00857408 0.013896173 0.012512113 0.0 0.015448691 0.0
0.0 0.02009526 0.0 0.0 0.0 0.0 0.0042916783 0.0
0.0 0.0 -0.016489781 -0.011110988 0.0 0.0 0.0 0.008001123
0.017993983 0.0 0.0039654016 0.0 -0.010465697 0.0 0.021057399 0.009382442
-0.010686098 0.0 0.0088062165 0.01075405 -0.013127172 0.0 0.0 0.017613204
-0.003225234 0.0 0.0 0.0 0.0 0.0 -0.02670261 -0.018148124
-0.0060014445 0.0 0.0 -1.126891e-05 0.0 -0.010665443 0.0 -0.006601402
0.012009867 0.0041773226 -0.009328162 0.0 0.0 0.0030149685 -0.021952324 0.0
0.0 0.0 0.01620777 0.0 0.0 -0.007653167 0.0 0.009657195
0.017352212 0.0 0.0 0.0 0.0 0.0 -0.009710806 -0.0077867075
0.0 0.0052076885 -0.020382369 0.0 -0.0055816234 0.0 0.0 0.0
0.0033690576 0.02235286 -0.008066659 0.0 -0.008612489 0.0 0.0 -0.027568629

arith.constant3 f4 [128]
00000000: 0000 0000 0000 0000 0000 0000 de95 e6bb
00000010: c767 213c 3f86 00bc 6091 283c 6b24 d0bc
00000020: 0000 0000 0000 0000 cf7a 25bc 19ad ccbb
00000030: 498b c53c a546 b5bb 057c 2dbc 2839 25bc
00000040: 2155 843c 45c9 c4bb 0000 0000 2ffa 1dbb
00000050: 5a73 b03c c64a 26bc 62ad 033d cd17 4e3c
00000060: 0000 0000 4992 a6bb b9dc 8cbc 0000 0000
00000070: 0000 0000 2642 65bc 0000 0000 0000 0000
00000080: a1e5 a43c 98e4 393c 0000 0000 d963 393c
00000090: bfec 91bc 81f0 dcbb 0000 0000 694f 7c3c
000000a0: 0000 0000 a762 e5bb 0000 0000 fc2d 0abc
000000b0: 3acb 8c3c 6118 e1bb 0000 0000 de0c 00bc
000000c0: 0000 0000 1e97 0abc 8571 29bc 055e 213b
000000d0: 0815 ba3c b3b2 a03c fda3 ad3b 6fc0 953c
000000e0: 0000 0000 9ce8 403c 61c3 29bc 0000 0000
000000f0: c535 a93c 341d cbbb 0000 0000 4cc7 c6bc
00000100: 0000 0000 8c9a 9d3c 335d a63c 0000 0000
00000110: 0000 0000 3d8a 5fbc 0000 0000 0000 0000
00000120: 0000 0000 0000 0000 0000 0000 eec5 c4bb
00000130: 0642 8b3c 93e0 643c 0000 0000 7831 27bc
00000140: 0000 0000 23a3 16bc 0000 0000 0000 0000
00000150: bb62 b43c c27a 4ebc fe28 50bc 0000 0000
00000160: c537 cebb 0000 0000 3207 633c 0000 0000
00000170: a52d b73b c35e 67bb a91f 7f3b 8b86 05bd
00000180: c239 ef3b 60dc a33c 0000 0000 0000 0000
00000190: c732 2a3d bf85 b53c 0000 0000 6ba8 bbbb
000001a0: 0000 0000 45ef 39bc 7c80 d6bb 578d a5bb
000001b0: 4a54 713c 9153 89bc 0000 0000 2182 dabb
000001c0: 0000 0000 2fb1 933c 4228 04bc 0000 0000
000001d0: 0000 0000 43a4 ac3c 0000 0000 7fad 0abc
000001e0: 07db f83a d989 9fbc 0000 0000 eabc 873c
000001f0: 2ee3 963c 0000 0000 0000 0000 112a 67bc
0.0 0.0 0.0 -0.0070369085 0.009851403 -0.007844507 0.010288566 -0.02540799
0.0 0.0 -0.010100081 -0.006246221 0.024114268 -0.005532103 -0.010588651 -0.010084428
0.016153874 -0.0060054385 0.0 -0.002410542 0.021539379 -0.010149663 0.032147773 0.012578917
0.0 -0.0050833565 -0.017195093 0.0 0.0 -0.013992822 0.0 0.0
0.020129027 0.011346005 0.0 0.011315309 -0.017813085 -0.0067425375 0.0 0.015399792
0.0 -0.0070002857 0.0 -0.008433815 0.01718675 -0.0068693613 0.0 -0.007815568
0.0 -0.008458881 -0.010342007 0.002462269 0.022715107 0.01961646 0.00529909 0.018280236
0.0 0.011774208 -0.010361523 0.0 0.020655522 -0.0061985496 0.0 -0.024264954
0.0 0.019238733 0.020308113 0.0 0.0 -0.013643798 0.0 0.0
0.0 0.0 0.0 -0.0060050404 0.016999256 0.013969558 0.0 -0.010204665
0.0 -0.009194168 0.0 0.0 0.022019735 -0.01260251 -0.012705086 0.0
-0.0062932693 0.0 0.013856696 0.0 0.005590158 -0.0035304285 0.0038928783 -0.032599013
0.0073005864 0.020002544 0.0 0.0 0.04155233 0.022158502 0.0 -0.005726864
0.0 -0.01134855 -0.0065460782 -0.0050522494 0.014729569 -0.01676348 0.0 -0.0066683446
0.0 0.018028824 -0.008066239 0.0 0.0 0.02107442 0.0 -0.008464216
0.0018986174 -0.01947491 0.0 0.016569573 0.018418875 0.0 0.0 -0.0141091505

arith.constant4 f4 [128]
00000000: a410 07bc 0000 0000 8949 26bc 8bbf 54bc
00000010: d64e 8fbb 0000 0000 e06b b13c 63af ab3c
00000020: 0000 0000 fdf6 abbc 0000 0000 4c03 b33c
00000030: ba6f 1ebc bf80 1abc 3245 043d 0000 0000
00000040: 0000 0000 953c af3c 0000 0000 6c46 51bc
00000050: 677e b4bc abad 8bbc 637f c43b 0000 0000
00000060: 0000 0000 79d5 34bc 0000 0000 3b08 b13c
00000070: a4a0 a93c 2ca5 f0bb e5be b23c 0000 0000
00000080: 0000 0000 77a8 b23c d252 b23c 3a9b 9b3c
00000090: 0a3f 1ebc eba3 b23c 3b15 33bc 0000 0000
000000a0: b30b b6bc cfae 49bc 5e58 b3bb f1e2 08bc
000000b0: 0000 0000 0000 0000 5ba1 0bbc dde1 87bc
000000c0: 556a ae3c 0000 0000 0000 0000 bde2 b23c
000000d0: 91f1 ccbc 0c96 7abc 605f ac3c 0000 0000
000000e0: 0000 0000 0000 0000 0000 0000 556d b4bc
000000f0: 47da b13c 3b9c 0bbc 0000 0000 f574 24bc
00000100: 0000 0000 fd79 d6bb c88d b13c 3243 ae3c
00000110: 0000 0000 d0cd 9a3c 0000 0000 24c9 58bc
00000120: 67e5 1bbc 683c b23c 1f25 c23c c663 33bc
00000130: 6fcb 44bc 0000 0000 085d b23c 4f24 4dbc
00000140: afde b33c 0000 0000 b5ab b3bc 0000 0000
00000150: 74cd b03c 3697 6cbc d921 10bd a02c 993c
00000160: 0000 0000 0000 0000 99de 10bc dedb 08bc
00000170: ec73 e2bc bc4d b33c 0000 0000 890e a33c
00000180: 0000 0000 0000 0000 c570 29bc 24e3 08bc
00000190: 7db4 b23c 0000 0000 3ec6 31bc 0000 0000
000001a0: 0000 0000 0000 0000 e895 983c dcfa b13c
000001b0: e950 26bc 36c8 c4bb 0000 0000 0000 0000
000001c0: 55de 33bc 6671 f4bb 8283 b23c d5db b23c
000001d0: 0000 0000 8836 b23c 0000 0000 5fa7 b33c
000001e0: eb54 fc3b 6e07 12bc b235 afbb 2c38 b23c
000001f0: 280c b33c aa9f b03c fc6a aa3c 0000 0000
-0.0082437135 0.0 -0.010149368 -0.0129851205 -0.0043734116 0.0 0.021657884 0.020957654
0.0 -0.020991797 0.0 0.021852158 -0.009670192 -0.0094301095 0.032292552 0.0
0.0 0.021391192 0.0 -0.012773138 -0.02203293 -0.017050585 0.005996631 0.0
0.0 -0.011037224 0.0 0.02161037 0.020706482 -0.007343909 0.021819541 0.0
0.0 0.021808846 0.021768007 0.018994916 -0.009658584 0.021806678 -0.010930355 0.0
-0.022222375 -0.012309744 -0.0054731807 -0.008354888 0.0 0.0 -0.008522357 -0.016587192
0.021290937 0.0 0.0 0.021836633 -0.025017532 -0.015294563 0.021041572 0.0
0.0 0.0 0.0 -0.02202479 0.021710528 -0.008521135 0.0 -0.01003765
0.0 -0.006545304 0.021674052 0.021272276 0.0 0.018896967 0.0 -0.013231549
-0.009515143 0.02175732 0.023699341 -0.010949081 -0.012011393 0.0 0.021772876 -0.012520864
0.02195677 0.0 -0.021932462 0.0 0.021582343 -0.014440348 -0.03518853 0.018698037
0.0 0.0 -0.008842134 -0.008353202 -0.027643166 0.021887653 0.0 0.019904392
0.0 0.0 -0.010341828 -0.008354936 0.02181458 0.0 -0.010850487 0.0
0.0 0.0 0.018626168 0.021726064 -0.010151126 -0.0060053123 0.0 0.0
-0.010978301 -0.007459807 0.021791223 0.02183334 0.0 0.021754518 0.0 0.021930395
0.0077005527 -0.008912904 -0.005346977 0.0217553 0.021856382 0.021560509 0.020802967 0.0

arith.constant6 f4 [1, 128]
00000000: 1b79 90bd 409d 523e dd58 35bd 8100 2bbe
00000010: e483 843d 6355 28be c16b 203e 3520 5a3d
00000020: fe49 413e 9c47 bfbc 5042 183d 656e 543e
00000030: 85f3 43bd b7be cabc 4789 e53d a6cd 12be
00000040: 6ae2 213e 7a1c aa3d e45f 073d 0762 36be
00000050: 71c9 82bd ed51 3fbe 7048 c83d 3c3e aabd
00000060: 9cb1 e6bd 42a4 bcbd 849a d43d dac1 9a3d
00000070: 04fc 4a3e 5379 b03d 39a6 313e 9cd0 2ebe
00000080: 40e1 f4bb b6d6 483e 3198 a33d 7307 f03c
00000090: 4971 66bb a5af 913d beb6 80bd c8d6 3c3e
000000a0: e5c5 3dbd 0427 18be 6824 07bd 8077 ddbd
000000b0: 3ac5 2c3e 83ae 4bbe 3544 2b3e c8e7 d5bd
000000c0: ebbf b13c 0068 8c3d c97c e4bd 44b1 f23d
000000d0: 97c7 debc ec17 93be 1db9 7a3d da7e 4a3e
000000e0: 208f 513d 9cc8 58be 7065 8d3d 3409 38be
000000f0: 99a3 7d3d 5605 1abe 1b9f 3dbe 8628 e0bd
00000100: 7c1b 803d d91b cb3b 3fed fe3d c807 b33d
00000110: cc03 e43d 0463 393e 3cfd cfbd c690 bebd
00000120: ef90 febd fc38 ee3d e4f1 053e b1f1 d5bd
00000130: a033 d1bd f816 92bd 5616 143e 53f0 033b
00000140: cf74 863d e0d9 97bd 7b44 3ebd 82ac 2fbe
00000150: 132e 5a3d b8fd 843d b588 2cbd 3575 af3c
00000160: 9dbb 40be 8ae0 52be 8e36 4c3d 87fd a6bd
00000170: 4d82 c63d 75be 563e e3ac e2bd 2807 ef3c
00000180: 1668 01be 10e6 0fbc b4ec 373b dc73 e0bd
00000190: 4459 4a3e 44f9 dc3d bc76 87bd 6836 d73d
000001a0: 607f 6abd 2f5a 5cbe 504d bb3c 4648 443e
000001b0: c4d7 88bd 772a 0dbc acb4 e43d 1007 0b3d
000001c0: 22d0 e8bd a74e a9bd 14d7 543d a114 313e
000001d0: 7f7a e3bd 95be 773d 906f 283e 713b 453e
000001e0: 6387 793d 24e3 2fbe cd55 85bd 4a4c 223e
000001f0: 84ee 583e 172f 033e d11b 373d 38a1 c1bc
-0.07054349 0.20567799 -0.0442742 -0.16699411 0.06470469 -0.16438822 0.15666105 0.05325337
0.18875882 -0.023349576 0.037172616 0.20745237 -0.04783966 -0.024749143 0.11207824 -0.14336261
0.15809026 0.08306213 0.033050433 -0.17810832 -0.06386078 -0.18683596 0.09779441 -0.083126515
-0.11264345 -0.09211017 0.10381034 0.075565055 0.19822699 0.08616891 0.17348565 -0.17071766
-0.007473141 0.19613156 0.079880126 0.029300427 -0.0035162738 0.0711358 -0.06284855 0.18441308
-0.046331305 -0.14858633 -0.032993704 -0.108138084 0.16872111 -0.1989079 0.16725238 -0.104445994
0.021697959 0.06855774 -0.111566134 0.11850217 -0.027194781 -0.28729188 0.061211694 0.19774953
0.051161885 -0.21170276 0.06904113 -0.1797226 0.061923597 -0.15041098 -0.18517725 -0.10945229
0.06255242 0.006198388 0.12447595 0.087417185 0.11133537 0.18104178 -0.101557225 -0.09304957
-0.12429988 0.11631963 0.13080555 -0.104464896 -0.10214925 -0.07133287 0.14461645 0.0020132258
0.06565248 -0.07414603 -0.046452027 -0.1715565 0.053266596 0.064937055 -0.04212256 0.021418193
-0.18821569 -0.20593467 0.049856715 -0.08153825 0.09692822 0.20971091 -0.11068132 0.029178217
-0.12637362 -0.0087828785 0.002806467 -0.109595984 0.19760615 0.10789731 -0.06614444 0.10508424
-0.05725038 -0.21518777 0.022864014 0.19168195 -0.06681779 -0.008616081 0.11167273 0.033942282
-0.11367823 -0.08266955 0.051962927 0.17293026 -0.11107349 0.060484488 0.16448808 0.19260956
0.06092013 -0.17176491 -0.06510506 0.15849414 0.21184736 0.12810932 0.044704262 -0.023636445

tfl.pseudo_qconst i1 [128, 128]
00000000: 3dae da1c 64ee 4c85 4912 8193 61c8 e5e7
00000010: 33eb d6fb 95c3 503c 54af 32dc a067 f14d
00000020: e5d2 1865 db0b 4111 cb95 9e17 56e5 ba3a
00000030: 2fb7 0fca c021 39a7 c1b0 71e8 1f38 9d24
00000040: b240 a4fb db26 5e22 316f f296 01e6 f20e
00000050: b8f0 6d96 f63d a8b3 db3b 9979 9c8c 8417
00000060: 12f5 b1d3 c7ad 628c 521b 3143 4c93 ae34
00000070: 691d 890e f9c7 4d1d 2b87 353a ed47 4426
00000080: f1bf 32a0 85e1 66cb b218 a902 4263 434d
00000090: c683 9a8d 1fd8 5c4e 78e6 7672 0bbc 98d8
000000a0: c747 40e8 2f77 0b94 6d8f 3328 8efd edc4
000000b0: c575 c37b 1092 e98d 5a34 a8f8 70a9 0c37
000000c0: f588 9b06 7a44 4d09 2aaa 0146 2608 e770
000000d0: 31d7 5349 f65c 4b01 3dbb cd30 77bc fd81
000000e0: c845 7c04 ced1 47f2 733c 0020 c453 d50a
000000f0: de94 099e 9219 7241 e439 2a63 36f0 d611
61 -82 -38 28 100 -18 76 -123
73 18 -127 -109 97 -56 -27 -25
51 -21 -42 -5 -107 -61 80 60
84 -81 50 -36 -96 103 -15 77
-27 -46 24 101 -37 11 65 17
-53 -107 -98 23 86 -27 -70 58
47 -73 15 -54 -64 33 57 -89
-63 -80 113 -24 31 56 -99 36
-78 64 -92 -5 -37 38 94 34
49 111 -14 -106 1 -26 -14 14
-72 -16 109 -106 -10 61 -88 -77
-37 59 -103 121 -100 -116 -124 23
18 -11 -79 -45 -57 -83 98 -116
82 27 49 67 76 -109 -82 52
105 29 -119 14 -7 -57 77 29
43 -121 53 58 -19 71 68 38
-15 -65 50 -96 -123 -31 102 -53
-78 24 -87 2 66 99 67 77
-58 -125 -102 -115 31 -40 92 78
120 -26 118 114 11 -68 -104 -40
-57 71 64 -24 47 119 11 -108
109 -113 51 40 -114 -3 -19 -60
-59 117 -61 123 16 -110 -23 -115
90 52 -88 -8 112 -87 12 55
-11 -120 -101 6 122 68 77 9
42 -86 1 70 38 8 -25 112
49 -41 83 73 -10 92 75 1
61 -69 -51 48 119 -68 -3 -127
-56 69 124 4 -50 -47 71 -14
115 60 0 32 -60 83 -43 10
-34 -108 9 -98 -110 25 114 65
-28 57 42 99 54 -16 -42 17

tfl.pseudo_qconst1 i1 [128, 128]
00000000: da2c cd2c 4e16 b308 a657 ba94 458e 63dd
00000010: c3f2 1dca 8fe3 b33a 24a2 2f3f 629a 5a3d
00000020: 52f6 903e fdbf e17c 4ab8 8409 c461 0d87
00000030: 34ba b1f4 93dc cbee dab6 721d d831 fc17
00000040: 3c55 c13e da08 d0a4 177f 0d39 9ecf 8b78
00000050: c96d e4d4 4345 75ed 47bd 40d9 a487 308e
00000060: a1ab b83e 91a7 958f 8c25 4ee8 cce9 13e5
00000070: 041a 11be 0278 53fd 0553 e844 bc1a ef3e
00000080: de8d c72e 888f 0160 48c8 4446 ba37 c5e9
00000090: fab0 e536 5c4c 8ecc ea4a d5f1 d8d7 35fc
000000a0: ce7d f111 2dfd 22cc 7a6a 4c1c bff1 df78
000000b0: 5379 da5a 4a12 f584 d604 f02f b607 bc05
000000c0: e4c0 649d 0142 4ff1 ae0a c0ff 042b fa3c
000000d0: 82f0 2fcb 907f 3b3b 00e6 74cb 0114 0de0
000000e0: 1625 b425 b3a3 94f7 a321 e841 eeb8 1fbc
000000f0: f4d3 f171 d3a2 292a b2cf 1185 5ac5 7abd
-38 44 -51 44 78 22 -77 8
-90 87 -70 -108 69 -114 99 -35
-61 -14 29 -54 -113 -29 -77 58
36 -94 47 63 98 -102 90 61
82 -10 -112 62 -3 -65 -31 124
74 -72 -124 9 -60 97 13 -121
52 -70 -79 -12 -109 -36 -53 -18
-38 -74 114 29 -40 49 -4 23
60 85 -63 62 -38 8 -48 -92
23 127 13 57 -98 -49 -117 120
-55 109 -28 -44 67 69 117 -19
71 -67 64 -39 -92 -121 48 -114
-95 -85 -72 62 -111 -89 -107 -113
-116 37 78 -24 -52 -23 19 -27
4 26 17 -66 2 120 83 -3
5 83 -24 68 -68 26 -17 62
-34 -115 -57 46 -120 -113 1 96
72 -56 68 70 -70 55 -59 -23
-6 -80 -27 54 92 76 -114 -52
-22 74 -43 -15 -40 -41 53 -4
-50 125 -15 17 45 -3 34 -52
122 106 76 28 -65 -15 -33 120
83 121 -38 90 74 18 -11 -124
-42 4 -16 47 -74 7 -68 5
-28 -64 100 -99 1 66 79 -15
-82 10 -64 -1 4 43 -6 60
-126 -16 47 -53 -112 127 59 59
0 -26 116 -53 1 20 13 -32
22 37 -76 37 -77 -93 -108 -9
-93 33 -24 65 -18 -72 31 -68
-12 -45 -15 113 -45 -94 41 42
-78 -49 17 -123 90 -59 122 -67

tfl.pseudo_qconst2 i1 [128, 128]
00000000: 0788 d34f 1343 78de 8190 1f88 3154 1893
00000010: 791e 92bd 696c f15c 98ec 5881 1a56 3623
00000020: 30c7 fc33 2f90 e05c 8e82 52ed b2e2 3fa8
00000030: ffac e463 533d 16ac f816 ad0a 40df 0c4a
00000040: 55c0 df43 cd07 ccdf 0245 b599 f689 4d1f
00000050: b53f 7dba 9c26 4c12 f2aa 3394 d61a 201e
00000060: 3520 4957 a033 2394 9d30 bd90 b892 4b9c
00000070: 0215 3836 991d 42dd 3cbd b542 d967 7e85
00000080: 29dc 7d19 35d4 4e42 a240 d834 1460 1937
00000090: 415a 4e6c 6235 0558 0b9d bf72 b8a4 75ee
000000a0: 612b 4788 c7ce c007 73a0 4f68 a563 0900
000000b0: 5292 5fbd 3165 d1ff ecdb a852 0cf1 6d21
000000c0: 22f9 e445 7864 98bf b73e 8185 0dbd 2b0f
000000d0: 2c03 d2a3 8eca 3685 bb46 d883 2207 0093
000000e0: 96fe 9986 a21c e0ab 76d5 7b1e be49 3be0
000000f0: 3e60 0467 cdb9 d055 b1d6 3e2b 95f7 fac9
7 -120 -45 79 19 67 120 -34
-127 -112 31 -120 49 84 24 -109
121 30 -110 -67 105 108 -15 92
-104 -20 88 -127 26 86 54 35
48 -57 -4 51 47 -112 -32 92
-114 -126 82 -19 -78 -30 63 -88
-1 -84 -28 99 83 61 22 -84
-8 22 -83 10 64 -33 12 74
85 -64 -33 67 -51 7 -52 -33
2 69 -75 -103 -10 -119 77 31
-75 63 125 -70 -100 38 76 18
-14 -86 51 -108 -42 26 32 30
53 32 73 87 -96 51 35 -108
-99 48 -67 -112 -72 -110 75 -100
2 21 56 54 -103 29 66 -35
60 -67 -75 66 -39 103 126 -123
41 -36 125 25 53 -44 78 66
-94 64 -40 52 20 96 25 55
65 90 78 108 98 53 5 88
11 -99 -65 114 -72 -92 117 -18
97 43 71 -120 -57 -50 -64 7
115 -96 79 104 -91 99 9 0
82 -110 95 -67 49 101 -47 -1
-20 -37 -88 82 12 -15 109 33
34 -7 -28 69 120 100 -104 -65
-73 62 -127 -123 13 -67 43 15
44 3 -46 -93 -114 -54 54 -123
-69 70 -40 -125 34 7 0 -109
-106 -2 -103 -122 -94 28 -32 -85
118 -43 123 30 -66 73 59 -32
62 96 4 103 -51 -71 -48 85
-79 -42 62 43 -107 -9 -6 -55
