model_vbp5.tflite (tflite, 203880 bytes, 9 tensors)

arith.constant f4 [1, 128]
-0.07054349 0.20567799 -0.0442742 -0.16699411 0.06470469 -0.16438822 0.15666105 0.05325337
0.18875882 -0.023349576 0.037172616 0.20745237 -0.04783966 -0.024749143 0.11207824 -0.14336261
0.15809026 0.08306213 0.033050433 -0.17810832 -0.06386078 -0.18683596 0.09779441 -0.083126515
-0.11264345 -0.09211017 0.10381034 0.075565055 0.19822699 0.08616891 0.17348565 -0.17071766
-0.007473141 0.19613156 0.079880126 0.029300427 -0.0035162738 0.0711358 -0.06284855 0.18441308
-0.046331305 -0.14858633 -0.032993704 -0.108138084 0.16872111 -0.1989079 0.16725238 -0.104445994
0.021697959 0.06855774 -0.111566134 0.11850217 -0.027194781 -0.28729188 0.061211694 0.19774953
0.051161885 -0.21170276 0.06904113 -0.1797226 0.061923597 -0.15041098 -0.18517725 -0.10945229
0.06255242 0.006198388 0.12447595 0.087417185 0.11133537 0.18104178 -0.101557225 -0.09304957
-0.12429988 0.11631963 0.13080555 -0.104464896 -0.10214925 -0.07133287 0.14461645 0.0020132258
0.06565248 -0.07414603 -0.046452027 -0.1715565 0.053266596 0.064937055 -0.04212256 0.021418193
-0.18821569 -0.20593467 0.049856715 -0.08153825 0.09692822 0.20971091 -0.11068132 0.029178217
-0.12637362 -0.0087828785 0.002806467 -0.109595984 0.19760615 0.10789731 -0.06614444 0.10508424
-0.05725038 -0.21518777 0.022864014 0.19168195 -0.06681779 -0.008616081 0.11167273 0.033942282
-0.11367823 -0.08266955 0.051962927 0.17293026 -0.11107349 0.060484488 0.16448808 0.19260956
0.06092013 -0.17176491 -0.06510506 0.15849414 0.21184736 0.12810932 0.044704262 -0.023636445
00000000: 1b79 90bd 409d 523e dd58 35bd 8100 2bbe
00000010: e483 843d 6355 28be c16b 203e 3520 5a3d
00000020: fe49 413e 9c47 bfbc 5042 183d 656e 543e
00000030: 85f3 43bd b7be cabc 4789 e53d a6cd 12be
00000040: 6ae2 213e 7a1c aa3d e45f 073d 0762 36be
00000050: 71c9 82bd ed51 3fbe 7048 c83d 3c3e aabd
00000060: 9cb1 e6bd 42a4 bcbd 849a d43d dac1 9a3d
00000070: 04fc 4a3e 5379 b03d 39a6 313e 9cd0 2ebe
00000080: 40e1 f4bb b6d6 483e 3198 a33d 7307 f03c
00000090: 4971 66bb a5af 913d beb6 80bd c8d6 3c3e
000000a0: e5c5 3dbd 0427 18be 6824 07bd 8077 ddbd
000000b0: 3ac5 2c3e 83ae 4bbe 3544 2b3e c8e7 d5bd
000000c0: ebbf b13c 0068 8c3d c97c e4bd 44b1 f23d
000000d0: 97c7 debc ec17 93be 1db9 7a3d da7e 4a3e
000000e0: 208f 513d 9cc8 58be 7065 8d3d 3409 38be
000000f0: 99a3 7d3d 5605 1abe 1b9f 3dbe 8628 e0bd
00000100: 7c1b 803d d91b cb3b 3fed fe3d c807 b33d
00000110: cc03 e43d 0463 393e 3cfd cfbd c690 bebd
00000120: ef90 febd fc38 ee3d e4f1 053e b1f1 d5bd
00000130: a033 d1bd f816 92bd 5616 143e 53f0 033b
00000140: cf74 863d e0d9 97bd 7b44 3ebd 82ac 2fbe
00000150: 132e 5a3d b8fd 843d b588 2cbd 3575 af3c
00000160: 9dbb 40be 8ae0 52be 8e36 4c3d 87fd a6bd
00000170: 4d82 c63d 75be 563e e3ac e2bd 2807 ef3c
00000180: 1668 01be 10e6 0fbc b4ec 373b dc73 e0bd
00000190: 4459 4a3e 44f9 dc3d bc76 87bd 6836 d73d
000001a0: 607f 6abd 2f5a 5cbe 504d bb3c 4648 443e
000001b0: c4d7 88bd 772a 0dbc acb4 e43d 1007 0b3d
000001c0: 22d0 e8bd a74e a9bd 14d7 543d a114 313e
000001d0: 7f7a e3bd 95be 773d 906f 283e 713b 453e
000001e0: 6387 793d 24e3 2fbe cd55 85bd 4a4c 223e
000001f0: 84ee 583e 172f 033e d11b 373d 38a1 c1bc

arith.constant1 f4 [128, 128]
0.07540023 -0.10072194 -0.047307998 0.034008462 0.12370298 -0.021709291 0.09310044 -0.15164596
0.089903384 0.022302821 -0.15652147 -0.1344153 0.11953703 -0.06922702 -0.0328485 -0.030311441
0.06286768 -0.026328832 -0.051717848 -0.006690234 -0.13236555 -0.075171456 0.09873908 0.073419236
0.10338919 -0.100431174 0.06151024 -0.04453194 -0.11865415 0.12752949 -0.018125951 0.094431534
-0.03360179 -0.056271583 0.02995509 0.1249859 -0.04537692 0.013175199 0.07962787 0.020532291
-0.06537175 -0.13220216 -0.12114168 0.028068542 0.10591692 -0.033210523 -0.086306944 0.07120103
0.057334438 -0.09002015 0.018072244 -0.06658068 -0.079137154 0.04126167 0.07019208 -0.1095573
-0.07770143 -0.099129625 0.13980572 -0.02959498 0.038808394 0.06902503 -0.12235341 0.043919545
-0.09617372 0.07836389 -0.11304892 -0.0065403283 -0.045644537 0.0465087 0.116156444 0.041371122
0.06008126 0.13687544 -0.017245457 -0.1304306 0.0015801769 -0.03185887 -0.017647505 0.017151995
-0.08837267 -0.019230325 0.13479526 -0.13112701 -0.01174362 0.07548691 -0.10863838 -0.094949365
-0.045212924 0.07236597 -0.12709439 0.1496739 -0.12295377 -0.14285608 -0.15296094 0.027775735
0.021772498 -0.013684016 -0.097611174 -0.05566773 -0.07014065 -0.101972476 0.121015474 -0.14301774
0.10049389 0.033441514 0.05979529 0.082219146 0.094161175 -0.13481346 -0.10078213 0.06431466
0.12970023 0.036241833 -0.14647287 0.016967058 -0.009007782 -0.070051745 0.094598114 0.035307273
0.052410156 -0.14853545 0.0647542 0.071705975 -0.023159793 0.08708772 0.084249094 0.047055416
-0.018013492 -0.07706008 0.059019685 -0.11494025 -0.14626154 -0.03713224 0.12191884 -0.06258069
-0.092536405 0.029196799 -0.10389316 0.0018519163 0.07915524 0.118483886 0.079683855 0.09137134
-0.06970564 -0.14878958 -0.121874385 -0.13671309 0.037205905 -0.048233904 0.10970993 0.09335002
0.14316382 -0.030410543 0.14044006 0.13555683 0.013178632 -0.08047146 -0.12355255 -0.04795818
-0.06757067 0.08494745 0.076031685 -0.02915807 0.05605164 0.1413639 0.0125955045 -0.1290911
0.1297294 -0.135147 0.060726956 0.048104003 -0.13567849 -0.0036475062 -0.022731617 -0.071155876
-0.07066338 0.13988744 -0.07244115 0.14663185 0.019592851 -0.13145953 -0.027295321 -0.13746554
0.107850954 0.061691284 -0.1046151 -0.009210944 0.13292925 -0.10315955 0.014610678 0.06571719
-0.013386279 -0.14337464 -0.120738894 0.007170692 0.14599074 0.0815019 0.09211381 0.011071652
0.050341457 -0.10274169 0.0014231056 0.082974836 0.04471846 0.0092345625 -0.030266546 0.13321365
0.05888909 -0.048540905 0.09933169 0.08743623 -0.011700451 0.10963468 0.08972485 0.0008688867
0.07326734 -0.082501575 -0.060925037 0.05761592 0.14219974 -0.081258446 -0.003824532 -0.15135731
-0.06623666 0.081908 0.1482779 0.0049370974 -0.05956117 -0.055611074 0.08408937 -0.0171092
0.13653244 0.071843535 0.00019349158 0.038552612 -0.07092033 0.098606035 -0.051603608 0.011714429
-0.040264808 -0.12921947 0.010834411 -0.117211916 -0.13073204 0.029579729 0.13546367 0.077289596
-0.033151492 0.06794718 0.050019756 0.11821471 0.063902915 -0.018641114 -0.05031383 0.02028194
00000000: 706b 9a3d 4e47 cebd 08c6 41bd 754c 0b3d
00000010: fd57 fd3d afd7 b1bc 72ab be3d 1449 1bbe
00000020: 441f b83d 68b4 b63c 2a47 20be 2aa4 09be
00000030: d5cf f43d e5c6 8dbd 268c 06bd b34f f8bc
00000040: c5c0 803d 90af d7bc 18d6 53bd c039 dbbb
00000050: d68a 07be 7ef3 99bd b737 ca3d d35c 963d
00000060: b6bd d33d dcae cdbd 29f2 7b3d 2067 36bd
00000070: f200 f3bd 1797 023e e07c 94bc 5265 c13d
00000080: 08a2 09bd 087d 66bd 6064 f53c 9cf8 ff3d
00000090: 26dd 39bd cadc 573c f013 a33d 5633 a83c
000000a0: a0e1 85bd 0160 07be 2119 f8bd 00f0 e53c
000000b0: f8ea d83d c207 08bd b2c1 b0bd d8d1 913d
000000c0: 84d7 6a3d 7c5c b8bd 3e0c 943c 745b 88bd
000000d0: a912 a2bd ff01 293d dec0 8f3d 945f e0bd
000000e0: ed21 9fbd 7904 cbbd 3b29 0f3e 2c71 f2bc
000000f0: 8df5 1e3d ff5c 8d3d 6d94 fabd fbe4 333d
00000100: baf6 c4bd 3f7d a03d 3186 e7bd 4050 d6bb
00000110: c4f5 3abd e87f 3e3d 6ee3 ed3d c474 293d
00000120: c417 763d 1329 0c3e 5846 8dbc 998f 05be
00000130: f01d cf3a 727e 02bd 8091 90bc 5782 8c3c
00000140: bbfc b4bd ea88 9dbc c507 0a3e 2946 06be
00000150: 5068 40bc e298 9a3d cd7d debd d074 c2bd
00000160: 3031 39bd 9c34 943d 0825 02be 1d44 193e
00000170: 30cf fbbd dd48 12be cba1 1cbe f089 e33c
00000180: 3d5c b23c ec32 60bc 5ee8 c7bd d803 64bd
00000190: e7a5 8fbd f2d6 d0bd f6d6 f73d 3e73 12be
000001a0: becf cd3d f8f9 083d e8eb 743d 8362 a83d
000001b0: 93d7 c03d 8a0c 0abe dd66 cebd 68b7 833d
000001c0: 23d0 043e 5172 143d fcfc 15be 80fe 8a3c
000001d0: 6095 13bc 4a77 8fbd a8bc c13d 5c9e 103d
000001e0: 08ac 563d ad19 18be da9d 843d 95da 923d
000001f0: 9bb9 bdbc 0c5b b23d ca8a ac3d 2ebd 403d
00000200: 0891 93bc add1 9dbd a0be 713d cb65 ebbd
00000210: 96c5 15be fa17 18bd 96b0 f93d 4e2a 80bd
00000220: ba83 bdbd 202e ef3c f0c5 d4bd 00bc f23a
00000230: 241c a23d aea7 f23d 4a31 a33d e620 bb3d
00000240: d5c1 8ebd 4c5c 18be 4799 f9bd 84fe 0bbe
00000250: 3865 183d ea90 45bd 9aaf e03d 4c2e bf3d
00000260: 8999 123e 881f f9bc 85cf 0f3e 69cf 0a3e
00000270: 30eb 573c 39ce a4bd 1f09 fdbd cc6f 44bd
00000280: 7e62 8abd eef8 ad3d 80b6 9b3d e8dc eebc
00000290: 6896 653d b3c1 103e 605d 4e3c 7530 04be
000002a0: c9d7 043e fa63 0abe d4bc 783d b408 453d
000002b0: 4def 0abe 000b 6fbb a837 babc 2cba 91bd
000002c0: f6b7 90bd a73e 0f3e 075c 94bd a926 163e
000002d0: 3081 a03c 549d 06be 709a dfbc c4c3 0cbe
000002e0: f6e0 dc3d 00b0 7c3d 7140 d6bd 80e9 16bc
000002f0: 9b1e 083e 5045 d3bd a061 6f3c bc96 863d
00000300: 2052 5bbc cdd0 12be f445 f7bd 20f8 ea3b
00000310: 997e 153e 78ea a63d 2aa6 bc3d e065 353c
00000320: d832 4e3d 3c6a d2bd 8087 ba3a b6ee a93d
00000330: b42a 373d 904c 173c 8cf1 f7bc 2969 083e
00000340: b035 713d d4d2 46bd 6a6e cb3d c411 b33d
00000350: 40b3 3fbc 2688 e03d aac1 b73d 00c6 633a
00000360: 300d 963d 96f6 a8bd 888c 79bd acfe 6b3d
00000370: cf9c 113e d46a a6bd 00a5 7abb 69fd 1abe
00000380: 16a7 87bd 62bf a73d 29d6 173e 60c7 a13b
00000390: 6af6 73bd 70c8 63bd 0c37 ac3d 9828 8cbc
000003a0: 29cf 0b3e b422 933d 00e4 4a39 58e9 1d3d
000003b0: ae3e 91bd f6f1 c93d 4e5e 53bd e0ed 3f3c
000003c0: b6ec 24bd 1c52 04be d082 313c cd0c f0bd
000003d0: 9fde 05be 3051 f23c fdb6 0a3e 024a 9e3d
000003e0: dcc9 07bd e427 8b3d 84e1 4c3d 8e1a f23d
000003f0: 88df 823d 40b5 98bc e015 4ebd 5026 a63c

arith.constant2 f4 [128, 128]
-0.04516212 0.05215709 -0.059860103 0.052278385 0.09179968 0.025841877 -0.090464644 0.009475976
-0.10590994 0.102394864 -0.08268462 -0.12722316 0.08108099 -0.13429683 0.117285386 -0.04158622
-0.07218799 -0.0165018 0.03433487 -0.064180054 -0.13354245 -0.033662274 -0.09074482 0.06779063
0.042271078 -0.11052653 0.054966256 0.07485762 0.1150514 -0.12003729 0.10558914 0.0721654
0.096331 -0.011562541 -0.13252816 0.07274677 -0.0033873618 -0.07640428 -0.03645619 0.1463422
0.08702278 -0.08514466 -0.1463779 0.010872588 -0.07131053 0.114390954 0.015464321 -0.14250442
0.06131515 -0.08212423 -0.093703136 -0.013611883 -0.1286953 -0.04263422 -0.062769614 -0.020792514
-0.04529585 -0.08696748 0.1349626 0.033987716 -0.04686124 0.057775617 -0.004542157 0.027343318
0.07113558 0.100446746 -0.07483272 0.072987705 -0.044780396 0.009791523 -0.05610591 -0.108706884
0.027103007 0.14972343 0.015593335 0.067675725 -0.11498667 -0.05739733 -0.13798304 0.14181896
-0.065343134 0.12880422 -0.032653153 -0.05211074 0.07892735 0.08189425 0.13749255 -0.021935478
0.083406776 -0.07952169 0.075003475 -0.04637651 -0.10899235 -0.14236817 0.056314513 -0.13484778
-0.11207247 -0.099797025 -0.08461643 0.07293241 -0.13116191 -0.104949914 -0.12598008 -0.13312237
-0.13692394 0.04374218 0.09144807 -0.028475843 -0.06096884 -0.026957989 0.022869304 -0.031674214
0.005070716 0.030703172 0.020329207 -0.07772825 0.0029345453 0.1410691 0.09726544 -0.0029897392
0.005573839 0.09807943 -0.027782276 0.079659 -0.080587715 0.030329004 -0.02016233 0.073058486
-0.040763 -0.13729355 -0.068497926 0.05467193 -0.14309055 -0.13566038 0.0010324419 0.11523314
0.086071074 -0.067390144 0.08108142 0.083659425 -0.08367889 0.06635375 -0.07026286 -0.027659878
-0.007491231 -0.09554778 -0.032805175 0.06505202 0.11034791 0.09114148 -0.13627249 -0.062674016
-0.026220053 0.088532835 -0.05116637 -0.018443644 -0.04790157 -0.049642555 0.06282601 -0.0052827597
-0.060087427 0.149184 -0.017688096 0.020300776 0.054266334 -0.0040308684 0.040882573 -0.06227058
0.1459447 0.12730606 0.09107286 0.033506855 -0.07773176 -0.017568082 -0.0392036 0.14403857
0.099142715 0.1445177 -0.045252383 0.10735296 0.08851974 0.021482363 -0.013694167 -0.14844817
-0.050317742 0.0053509027 -0.019306555 0.05625896 -0.08886101 0.008125618 -0.08137039 0.0055400133
-0.033843502 -0.076656274 0.11910705 -0.118533075 0.0016996711 0.07891199 0.09423381 -0.018319577
-0.098541856 0.012552947 -0.07619225 -0.0013808757 0.005043417 0.05120203 -0.0072882175 0.07149258
-0.15023434 -0.018983707 0.056639075 -0.063881226 -0.13410583 0.15196244 0.07000229 0.070093796
-0.00017659366 -0.031383418 0.13880844 -0.063250616 0.0015612543 0.024504736 0.015737876 -0.038850278
0.026458949 0.04459603 -0.091296345 0.04407364 -0.09227331 -0.11097563 -0.12917659 -0.010953724
-0.11163329 0.03981936 -0.028739892 0.07769127 -0.021697938 -0.0857314 0.037647486 -0.08102627
-0.013924956 -0.05408927 -0.017967105 0.13512667 -0.054025836 -0.11247904 0.048956826 0.049993724
-0.09333262 -0.059152327 0.020751342 -0.14752091 0.10749279 -0.07000203 0.14612766 -0.08076
00000000: eafb 38bd aca2 553d de2f 75bd dc21 563d
00000010: 7801 bc3d 58b2 d33c 8745 b9bd 2041 1b3c
00000020: 50e7 d8bd 66b4 d13d 8e56 a9bd ca46 02be
00000030: ca0d a63d 1c85 09be 5233 f03d 5056 2abd
00000040: 4cd7 93bd c82e 87bc b8a2 0c3d d570 83bd
00000050: 5abf 08be 74e1 09bd 6cd8 b9bd d0d5 8a3d
00000060: 7024 2d3d bc5b e2bd 4c24 613d f44e 993d
00000070: 12a0 eb3d 1cd6 f5bd 1e3f d83d 74cb 933d
00000080: 3049 c53d d070 3dbc 76b5 07be 42fc 943d
00000090: 80fe 5dbb d979 9cbd 1653 15bd bbda 153e
000000a0: 0039 b23d 5360 aebd 17e4 15be f022 323c
000000b0: 410b 92bd ce45 ea3d 105e 7d3c aeec 11be
000000c0: 9825 7b3d c030 a8bd 6ee7 bfbd 6004 5fbc
000000d0: b3c8 03be 38a1 2ebd 5b8d 80bd 1055 aabc
000000e0: 2488 39bd 021c b2bd a333 0a3e b436 0b3d
000000f0: 92f1 3fbd 20a6 6c3d 60d6 94bb 18ff df3c
00000100: 88af 913d 06b7 cd3d e641 99bd 947a 953d
00000110: a66b 37bd a06c 203c 50cf 65bd b7a1 debd
00000120: 2007 de3c 1951 193e 307b 7f3c 9299 8a3d
00000130: 227e ebbd 7619 6bbd 6d4b 0dbe fd38 113e
00000140: 9fd2 85bd 41e5 033e 50bf 05bd 1272 55bd
00000150: aaa4 a13d 2cb8 a73d d9ca 0c3e 08b2 b3bc
00000160: 2cd1 aa3d 45dc a2bd 6c9b 993d 4cf5 3dbd
00000170: 6237 dfbd f6c8 11be 0caa 663d 8915 0abe
00000180: 4086 e5bd 6262 ccbd 614b adbd 965d 953d
00000190: 4f4f 06be fbef d6bd ec00 01be 3b51 08be
000001a0: ca35 0cbe 002b 333d 2049 bb3d 2c46 e9bc
000001b0: 76ba 79bd 00d7 dcbc 6858 bb3c d2bc 01bd
000001c0: 4028 a63b 3885 fb3c 7089 a63c fd2f 9fbd
000001d0: 8051 403b 6b74 103e 1a33 c73d 80ef 43bb
000001e0: c0a4 b63b dedd c83d a897 e3bc 4224 a33d
000001f0: 2c0b a5bd 8874 f83c 782b a5bc b09f 953d
00000200: 1af7 26bd ae96 0cbe a448 8cbd acef 5f3d
00000210: 5486 12be 8eea 0abe 0053 873a 5aff eb3d
00000220: 0846 b03d d803 8abd 040e a63d a255 ab3d
00000230: d65f abbd 7ae4 873d f9e5 8fbd f896 e2bc
00000240: 0079 f5bb 8eae c3bd b85e 06bd fe39 853d
00000250: 16fe e13d 62a8 ba3d 048b 0bbe 3c5b 80bd
00000260: 70cb d6bc b450 b53d d493 51bd 2017 97bc
00000270: 7034 44bd fe55 4bbd ecaa 803d 001b adbb
00000280: 3c1e 76bd b1c3 183e a0e6 90bc d04d a63c
00000290: 6046 5e3d 6015 84bb 7c74 273d 700f 7fbd
000002a0: 8772 153e 855c 023e 6884 ba3d 7c3e 093d
000002b0: d431 9fbd f0ea 8fbc f493 20bd d97e 133e
000002c0: 560b cb3d 73fc 133e 905a 39bd dedb db3d
000002d0: d649 b53d c8fb af3c 805d 60bc cc02 18be
000002e0: fa19 4ebd a056 af3b c828 9ebc cc6f 663d
000002f0: c3fc b5bd 5021 053c 85a5 a6bd 0089 b53b
00000300: 7c9f 0abd f7fd 9cbd 66ee f33d 78c1 f2bd
00000310: 80c7 de3a 9c9c a13d a8fd c03d f012 96bc
00000320: 50d0 c9bd e0aa 4d3c af0a 9cbd 80fe b4ba
00000330: 4043 a53b 38b9 513d 00d2 eebb b46a 923d
00000340: 08d7 19be b883 9bbc 60fe 673d 29d4 82bd
00000350: 0a53 09be 0b9c 1b3e 5c5d 8f3d 568d 8f3d
00000360: 002c 39b9 e68b 00bd cd23 0e3e 8a89 81bd
00000370: 00a3 cc3a 28be c83c b8ec 803c 7821 1fbd
00000380: 70c0 d83c 54aa 363d 94f9 babd 9086 343d
00000390: caf9 bcbd 3147 e3bd de46 04be 4077 33bc
000003a0: ff9f e4bd a019 233d ec6f ebbc 9a1c 9f3d
000003b0: e0bf b1bc f293 afbd 4034 1a3d 1af1 a5bd
000003c0: 8025 64bc b68c 5dbd c02f 93bc a55e 0a3e
000003d0: 324a 5dbd 695b e6bd f486 483d 38c6 4c3d
000003e0: 2c25 bfbd b649 72bd b8fe a93c b90f 17be
000003f0: 2e25 dc3d 395d 8fbd 7da2 153e 8065 a5bd

arith.constant3 f4 [128, 128]
0.0087586045 -0.14227466 -0.0531948 0.09425859 0.02268432 0.079279914 0.14269517 -0.039929293
-0.15094277 -0.13276277 0.037208304 -0.14261156 0.058227092 0.10034703 0.028861001 -0.13019767
0.14398043 0.035200253 -0.1304273 -0.07953396 0.12450422 0.12795149 -0.0177093 0.109967396
-0.12332038 -0.023650333 0.1052555 -0.15110892 0.03145741 0.10173826 0.06434135 0.04161495
0.05736947 -0.06752673 -0.0050653517 0.060752824 0.055711567 -0.13379386 -0.038065262 0.109302744
-0.13518982 -0.15014313 0.097294465 -0.023048043 -0.093228415 -0.036053702 0.074839294 -0.10462357
-0.0008754879 -0.10046972 -0.03291913 0.11836119 0.098480746 0.07220617 0.025795922 -0.10051415
-0.009318337 0.026127785 -0.0990929 0.011568859 0.07641706 -0.039790705 0.013878703 0.08748703
0.10150726 -0.07674041 -0.03972464 0.08026229 -0.060577042 0.0083886385 -0.061617263 -0.039309226
0.0028225332 0.08233714 -0.08937708 -0.1222322 -0.012148812 -0.14119305 0.09164481 0.036926717
-0.08964456 0.07517433 0.14841287 -0.08321041 -0.11852305 0.044744 0.090268865 0.020823613
-0.016919032 -0.10252922 0.06122127 -0.12828806 -0.05039282 0.031342506 0.038428336 0.035889223
0.062685624 0.038085565 0.086785644 0.10350634 -0.11377771 0.060900137 0.041188 -0.12830295
-0.11796061 0.056939498 -0.07983621 -0.13378552 -0.08569253 -0.13051647 0.08947523 -0.11878607
0.0027426332 0.025476292 0.06697123 0.064267874 -0.122884564 0.034196645 0.078463435 -0.041886546
0.07084325 -0.079237096 -0.08896934 0.07867846 -0.04606743 0.122134045 0.15047808 -0.14678945
0.04901807 -0.043029733 0.15082444 0.030314475 0.063676834 -0.05298952 0.09420191 0.07934897
-0.1128636 0.07638121 -0.047575727 0.062843606 0.024364203 0.11486204 0.030295312 0.06558111
0.07799116 0.108544305 0.09393169 0.12944515 0.11738388 0.06346932 0.0055316836 0.10610773
0.01293616 -0.11900349 -0.0781318 0.13741545 -0.08656168 -0.11078477 0.14052613 -0.021676362
0.116757825 0.05154656 0.084951326 -0.14436536 -0.068033785 -0.05978349 -0.07649943 0.008860797
0.13854177 -0.11512271 0.09492272 0.12504719 -0.10991639 0.119227484 0.01121743 -7.9900026e-05
0.099156365 -0.13279274 0.11456309 -0.081144124 0.059024572 0.12144272 -0.056632645 -0.0006465614
-0.024388805 -0.04458669 -0.106184065 0.098764405 0.014923751 -0.018094331 0.13140275 0.039172426
0.0411323 -0.008877367 -0.033368118 0.08309634 0.1441109 0.12077962 -0.12455657 -0.07805675
-0.08741148 0.07426858 -0.15268943 -0.14752384 0.015567943 -0.08017439 0.05129069 0.017516837
0.053131685 0.003641963 -0.054908775 -0.11199914 -0.13714963 -0.06522093 0.064802125 -0.14805809
-0.08268433 0.08418828 -0.04829303 -0.14979772 0.041113034 0.008711666 0.0001629442 -0.13133736
-0.1275205 -0.0021139085 -0.12384288 -0.1469461 -0.11279604 0.03370677 -0.038425446 -0.10177122
0.14230002 -0.051416323 0.14738406 0.036300912 -0.0792248 0.08752601 0.07100272 -0.038365334
0.07450017 0.11486502 0.004638225 0.12438612 -0.06161084 -0.084863394 -0.057325274 0.10212563
-0.095176205 -0.0505236 0.07434271 0.051252916 -0.12832767 -0.010340154 -0.0076310337 -0.066559546
00000000: 4080 0f3c 73b0 11be cae2 59bd a60a c13d
00000010: 78d4 b93c 825d a23d af1e 123e e68c 23bd
00000020: be90 1abe f7f2 07be bc67 183d c408 12be
00000030: 887f 6e3d be82 cd3d e86d ec3c 8a52 05be
00000040: 9b6f 133e 242e 103d bc8e 05be b3e2 a2bd
00000050: 12fc fe3d b705 033e 1813 91bc 9636 e13d
00000060: 658f fcbd 58be c1bc 3290 d73d 4cbc 1abe
00000070: 7cd9 003d 265c d03d 66c5 833d 7074 2a3d
00000080: 40fc 6a3d 744b 8abd 40fb a5bb f4d7 783d
00000090: d031 643d 4201 09be 52ea 1bbd 1eda df3d
000000a0: 336f 0abe 1fbf 19be 5242 c73d 40cf bcbc
000000b0: 8aee bebd 0cad 13bd 5845 993d e244 d6bd
000000c0: 0081 65ba 12c3 cdbd 36d6 06bd 5a67 f23d
000000d0: 46b0 c93d d4e0 933d f851 d33c 5dda cdbd
000000e0: f0ab 18bc f009 d63c 38f1 cabd 508b 3d3c
000000f0: 8c80 9c3d 94fb 22bd 8063 633c 662c b33d
00000100: 0ae3 cf3d 132a 9dbd 4eb6 22bd 8e60 a43d
00000110: a21f 78bd 8070 093c 6262 7cbd b602 21bd
00000120: 40fa 383b 60a0 a83d 550b b7bd e054 fabd
00000130: d00b 47bc e994 10be 46b0 bb3d 7840 173d
00000140: 9197 b7bd 00f5 993d 8bf9 173e 386a aabd
00000150: 36bc f2bd 7c45 373d e2de b83d 4896 aa3c
00000160: c899 8abc d7fa d1bd 28c3 7a3d f25d 03be
00000170: b468 4ebd 0061 003d 0867 1d3d 9400 133d
00000180: 5261 803d 9cff 1b3d acbc b13d 22fb d33d
00000190: 4a04 e9bd 6c72 793d c0b4 283d d961 03be
000001a0: 5595 f1bd 6439 693d 2b81 a3bd 12ff 08be
000001b0: 917f afbd 1ca6 05be ca3e b73d 1c46 f3bd
000001c0: c0bd 333b a8b3 d03c 3628 893d e09e 833d
000001d0: e7aa fbbd c811 0c3d 70b1 a03d 3a91 2bbd
000001e0: 4416 913d 0f47 a2bd 8f35 b6bd 2c22 a13d
000001f0: 34b1 3cbd 6a21 fa3d ed16 1a3e f94f 16be
00000200: 2cc7 483d f23f 30bd b971 1a3e 1056 f83c
00000210: 0069 823d 8a0b 59bd eeec c03d b681 a23d
00000220: 0825 e7bd c06d 9c3d c4de 42bd 26b4 803d
00000230: 7097 c73c ca3c eb3d e02d f83c 644f 863d
00000240: d4b9 9f3d 7a4c de3d 425f c03d 458d 043e
00000250: f666 f03d 34fc 813d 2043 b53b 024f d93d
00000260: 30f2 533c 1ab8 f3bd 9103 a0bd a3b6 0c3e
00000270: 4047 b1bd 20e3 e2bd 15e6 0f3e a092 b1bc
00000280: ba1e ef3d 7c22 533d f6fa ad3d 83d4 13be
00000290: 4c55 8bbd 88df 74bd bcab 9cbd e02c 113c
000002a0: e5dd 0d3e 75c5 ebbd d866 c23d 5f0c 003e
000002b0: d81b e1bd 8a2d f43d 50c9 373c 0090 a7b8
000002c0: 7e12 cb3d d2fa 07be 0ea0 ea3d e42e a6bd
000002d0: c0c3 713d f6b6 f83d a2f7 67bd 007e 29ba
000002e0: 08cb c7bc 88a0 36bd 0877 d9bd fe44 ca3d
000002f0: c082 743c 903a 94bc 718e 063e 4473 203d
00000300: 587a 283d 6072 11bc 02ad 08bd 6a2e aa3d
00000310: cf91 133e 4e5b f73d 8417 ffbd 38dc 9fbd
00000320: ca04 b3bd 201a 983d 9e5a 1cbe 7d10 17be
00000330: b010 7f3c 7832 a4bd 3016 523d 787f 8f3c
00000340: 9ca0 593d 00ae 6e3b 06e8 60bd ce5f e5bd
00000350: f470 0cbe 8d92 85bd fab6 843d 8a9c 17be
00000360: 6756 a9bd e86a ac3d eace 45bd 9364 19be
00000370: 2466 283d 60bb 0e3c 00dc 2a39 4d7d 06be
00000380: bc94 02be 8089 0abb 56a1 fdbd 0a79 16be
00000390: 9c01 e7bd 1c10 0a3d 0064 1dbd 6e6d d0bd
000003a0: 19b7 113e ec99 52bd d9eb 163e 44b0 143d
000003b0: 9d40 a2bd d640 b33d e069 913d f824 1dbd
000003c0: 8c93 983d 5a3e eb3d 40fc 973b 26be fe3d
000003d0: a65b 7cbd dccc adbd e8cd 6abd 3e27 d13d
000003e0: beeb c2bd d6f1 4ebd fe40 983d 94ee 513d
000003f0: 5468 03be c069 29bc c00d fabb 5f50 88bd

arith.constant5 f4 [128]
-0.0082437135 0.0 -0.010149368 -0.0129851205 -0.0043734116 0.0 0.021657884 0.020957654
0.0 -0.020991797 0.0 0.021852158 -0.009670192 -0.0094301095 0.032292552 0.0
0.0 0.021391192 0.0 -0.012773138 -0.02203293 -0.017050585 0.005996631 0.0
0.0 -0.011037224 0.0 0.02161037 0.020706482 -0.007343909 0.021819541 0.0
0.0 0.021808846 0.021768007 0.018994916 -0.009658584 0.021806678 -0.010930355 0.0
-0.022222375 -0.012309744 -0.0054731807 -0.008354888 0.0 0.0 -0.008522357 -0.016587192
0.021290937 0.0 0.0 0.021836633 -0.025017532 -0.015294563 0.021041572 0.0
0.0 0.0 0.0 -0.02202479 0.021710528 -0.008521135 0.0 -0.01003765
0.0 -0.006545304 0.021674052 0.021272276 0.0 0.018896967 0.0 -0.013231549
-0.009515143 0.02175732 0.023699341 -0.010949081 -0.012011393 0.0 0.021772876 -0.012520864
0.02195677 0.0 -0.021932462 0.0 0.021582343 -0.014440348 -0.03518853 0.018698037
0.0 0.0 -0.008842134 -0.008353202 -0.027643166 0.021887653 0.0 0.019904392
0.0 0.0 -0.010341828 -0.008354936 0.02181458 0.0 -0.010850487 0.0
0.0 0.0 0.018626168 0.021726064 -0.010151126 -0.0060053123 0.0 0.0
-0.010978301 -0.007459807 0.021791223 0.02183334 0.0 0.021754518 0.0 0.021930395
0.0077005527 -0.008912904 -0.005346977 0.0217553 0.021856382 0.021560509 0.020802967 0.0
00000000: a410 07bc 0000 0000 8949 26bc 8bbf 54bc
00000010: d64e 8fbb 0000 0000 e06b b13c 63af ab3c
00000020: 0000 0000 fdf6 abbc 0000 0000 4c03 b33c
00000030: ba6f 1ebc bf80 1abc 3245 043d 0000 0000
00000040: 0000 0000 953c af3c 0000 0000 6c46 51bc
00000050: 677e b4bc abad 8bbc 637f c43b 0000 0000
00000060: 0000 0000 79d5 34bc 0000 0000 3b08 b13c
00000070: a4a0 a93c 2ca5 f0bb e5be b23c 0000 0000
00000080: 0000 0000 77a8 b23c d252 b23c 3a9b 9b3c
00000090: 0a3f 1ebc eba3 b23c 3b15 33bc 0000 0000
000000a0: b30b b6bc cfae 49bc 5e58 b3bb f1e2 08bc
000000b0: 0000 0000 0000 0000 5ba1 0bbc dde1 87bc
000000c0: 556a ae3c 0000 0000 0000 0000 bde2 b23c
000000d0: 91f1 ccbc 0c96 7abc 605f ac3c 0000 0000
000000e0: 0000 0000 0000 0000 0000 0000 556d b4bc
000000f0: 47da b13c 3b9c 0bbc 0000 0000 f574 24bc
00000100: 0000 0000 fd79 d6bb c88d b13c 3243 ae3c
00000110: 0000 0000 d0cd 9a3c 0000 0000 24c9 58bc
00000120: 67e5 1bbc 683c b23c 1f25 c23c c663 33bc
00000130: 6fcb 44bc 0000 0000 085d b23c 4f24 4dbc
00000140: afde b33c 0000 0000 b5ab b3bc 0000 0000
00000150: 74cd b03c 3697 6cbc d921 10bd a02c 993c
00000160: 0000 0000 0000 0000 99de 10bc dedb 08bc
00000170: ec73 e2bc bc4d b33c 0000 0000 890e a33c
00000180: 0000 0000 0000 0000 c570 29bc 24e3 08bc
00000190: 7db4 b23c 0000 0000 3ec6 31bc 0000 0000
000001a0: 0000 0000 0000 0000 e895 983c dcfa b13c
000001b0: e950 26bc 36c8 c4bb 0000 0000 0000 0000
000001c0: 55de 33bc 6671 f4bb 8283 b23c d5db b23c
000001d0: 0000 0000 8836 b23c 0000 0000 5fa7 b33c
000001e0: eb54 fc3b 6e07 12bc b235 afbb 2c38 b23c
000001f0: 280c b33c aa9f b03c fc6a aa3c 0000 0000

arith.constant6 f4 [128]
0.0 0.0 0.0 -0.0070369085 0.009851403 -0.007844507 0.010288566 -0.02540799
0.0 0.0 -0.010100081 -0.006246221 0.024114268 -0.005532103 -0.010588651 -0.010084428
0.016153874 -0.0060054385 0.0 -0.002410542 0.021539379 -0.010149663 0.032147773 0.012578917
0.0 -0.0050833565 -0.017195093 0.0 0.0 -0.013992822 0.0 0.0
0.020129027 0.011346005 0.0 0.011315309 -0.017813085 -0.0067425375 0.0 0.015399792
0.0 -0.0070002857 0.0 -0.008433815 0.01718675 -0.0068693613 0.0 -0.007815568
0.0 -0.008458881 -0.010342007 0.002462269 0.022715107 0.01961646 0.00529909 0.018280236
0.0 0.011774208 -0.010361523 0.0 0.020655522 -0.0061985496 0.0 -0.024264954
0.0 0.019238733 0.020308113 0.0 0.0 -0.013643798 0.0 0.0
0.0 0.0 0.0 -0.0060050404 0.016999256 0.013969558 0.0 -0.010204665
0.0 -0.009194168 0.0 0.0 0.022019735 -0.01260251 -0.012705086 0.0
-0.0062932693 0.0 0.013856696 0.0 0.005590158 -0.0035304285 0.0038928783 -0.032599013
0.0073005864 0.020002544 0.0 0.0 0.04155233 0.022158502 0.0 -0.005726864
0.0 -0.01134855 -0.0065460782 -0.0050522494 0.014729569 -0.01676348 0.0 -0.0066683446
0.0 0.018028824 -0.008066239 0.0 0.0 0.02107442 0.0 -0.008464216
0.0018986174 -0.01947491 0.0 0.016569573 0.018418875 0.0 0.0 -0.0141091505
00000000: 0000 0000 0000 0000 0000 0000 de95 e6bb
00000010: c767 213c 3f86 00bc 6091 283c 6b24 d0bc
00000020: 0000 0000 0000 0000 cf7a 25bc 19ad ccbb
00000030: 498b c53c a546 b5bb 057c 2dbc 2839 25bc
00000040: 2155 843c 45c9 c4bb 0000 0000 2ffa 1dbb
00000050: 5a73 b03c c64a 26bc 62ad 033d cd17 4e3c
00000060: 0000 0000 4992 a6bb b9dc 8cbc 0000 0000
00000070: 0000 0000 2642 65bc 0000 0000 0000 0000
00000080: a1e5 a43c 98e4 393c 0000 0000 d963 393c
00000090: bfec 91bc 81f0 dcbb 0000 0000 694f 7c3c
000000a0: 0000 0000 a762 e5bb 0000 0000 fc2d 0abc
000000b0: 3acb 8c3c 6118 e1bb 0000 0000 de0c 00bc
000000c0: 0000 0000 1e97 0abc 8571 29bc 055e 213b
000000d0: 0815 ba3c b3b2 a03c fda3 ad3b 6fc0 953c
000000e0: 0000 0000 9ce8 403c 61c3 29bc 0000 0000
000000f0: c535 a93c 341d cbbb 0000 0000 4cc7 c6bc
00000100: 0000 0000 8c9a 9d3c 335d a63c 0000 0000
00000110: 0000 0000 3d8a 5fbc 0000 0000 0000 0000
00000120: 0000 0000 0000 0000 0000 0000 eec5 c4bb
00000130: 0642 8b3c 93e0 643c 0000 0000 7831 27bc
00000140: 0000 0000 23a3 16bc 0000 0000 0000 0000
00000150: bb62 b43c c27a 4ebc fe28 50bc 0000 0000
00000160: c537 cebb 0000 0000 3207 633c 0000 0000
00000170: a52d b73b c35e 67bb a91f 7f3b 8b86 05bd
00000180: c239 ef3b 60dc a33c 0000 0000 0000 0000
00000190: c732 2a3d bf85 b53c 0000 0000 6ba8 bbbb
000001a0: 0000 0000 45ef 39bc 7c80 d6bb 578d a5bb
000001b0: 4a54 713c 9153 89bc 0000 0000 2182 dabb
000001c0: 0000 0000 2fb1 933c 4228 04bc 0000 0000
000001d0: 0000 0000 43a4 ac3c 0000 0000 7fad 0abc
000001e0: 07db f83a d989 9fbc 0000 0000 eabc 873c
000001f0: 2ee3 963c 0000 0000 0000 0000 112a 67bc

arith.constant7 f4 [128]
0.0 0.0 0.0 0.0 0.0 0.0 0.0 -0.010303339
0.0 0.0 0.0 0.0 -0.008990945 -0.0057489583 0.0 0.0
0.0 0.0 0.0 -0.006920367 0.0 0.0 0.0 0.0
0.019330624 0.0 0.013846531 0.0 0.019756155 -0.021047961 0.0 -0.008046428
0.0 -0.016062934 -0.00857408 0.013896173 0.012512113 0.0 0.015448691 0.0
0.0 0.02009526 0.0 0.0 0.0 0.0 0.0042916783 0.0
0.0 0.0 -0.016489781 -0.011110988 0.0 0.0 0.0 0.008001123
0.017993983 0.0 0.0039654016 0.0 -0.010465697 0.0 0.021057399 0.009382442
-0.010686098 0.0 0.0088062165 0.01075405 -0.013127172 0.0 0.0 0.017613204
-0.003225234 0.0 0.0 0.0 0.0 0.0 -0.02670261 -0.018148124
-0.0060014445 0.0 0.0 -1.126891e-05 0.0 -0.010665443 0.0 -0.006601402
0.012009867 0.0041773226 -0.009328162 0.0 0.0 0.0030149685 -0.021952324 0.0
0.0 0.0 0.01620777 0.0 0.0 -0.007653167 0.0 0.009657195
0.017352212 0.0 0.0 0.0 0.0 0.0 -0.009710806 -0.0077867075
0.0 0.0052076885 -0.020382369 0.0 -0.0055816234 0.0 0.0 0.0
0.0033690576 0.02235286 -0.008066659 0.0 -0.008612489 0.0 0.0 -0.027568629
00000000: 0000 0000 0000 0000 0000 0000 0000 0000
00000010: 0000 0000 0000 0000 0000 0000 56cf 28bc
00000020: 0000 0000 0000 0000 0000 0000 0000 0000
00000030: c24e 13bc c261 bcbb 0000 0000 0000 0000
00000040: 0000 0000 0000 0000 0000 0000 3fc4 e2bb
00000050: 0000 0000 0000 0000 0000 0000 0000 0000
00000060: 425b 9e3c 0000 0000 8fdc 623c 0000 0000
00000070: a9d7 a13c c66c acbc 0000 0000 2ad5 03bc
00000080: 0000 0000 6a96 83bc 4c7a 0cbc c6ac 633c
00000090: 9bff 4c3c 0000 0000 821c 7d3c 0000 0000
000000a0: 0000 0000 d19e a43c 0000 0000 0000 0000
000000b0: 0000 0000 0000 0000 35a1 8c3b 0000 0000
000000c0: 0000 0000 0000 0000 9415 87bc dd0a 36bc
000000d0: 0000 0000 0000 0000 0000 0000 2417 033c
000000e0: 1e68 933c 0000 0000 33f0 813b 0000 0000
000000f0: 5178 2bbc 0000 0000 9180 ac3c d0b8 193c
00000100: be14 2fbc 0000 0000 f347 103c c131 303c
00000110: 5a13 57bc 0000 0000 0000 0000 9149 903c
00000120: 735e 53bb 0000 0000 0000 0000 0000 0000
00000130: 0000 0000 0000 0000 6fbf dabc 60ab 94bc
00000140: c4a7 c4bb 0000 0000 0000 0000 9a0f 3db7
00000150: 0000 0000 1cbe 2ebc 0000 0000 9350 d8bb
00000160: 08c5 443c ece1 883b 26d5 18bc 0000 0000
00000170: 0000 0000 c796 453b 5cd5 b3bc 0000 0000
00000180: 0000 0000 0000 0000 28c6 843c 0000 0000
00000190: 0000 0000 6bc7 fabb 0000 0000 3639 1e3c
000001a0: 3a26 8e3c 0000 0000 0000 0000 0000 0000
000001b0: 0000 0000 0000 0000 131a 1fbc a327 ffbb
000001c0: 0000 0000 42a5 aa3b edf8 a6bc 0000 0000
000001d0: 0de6 b6bb 0000 0000 0000 0000 0000 0000
000001e0: 68cb 5c3b 581d b73c 052a 04bc 0000 0000
000001f0: 661b 0dbc 0000 0000 0000 0000 9bd7 e1bc

sequential_30_1/dense_112_1/Add/ReadVariableOp f4 [128]
-0.011740922 0.0027626408 -0.022262756 0.006841108 -0.03253339 0.0 0.0 0.0
-0.015461694 0.0 0.00094273844 0.0 0.0 0.004919138 -0.025943281 0.046169195
0.0 0.024162777 0.0 0.0 -0.019543262 0.0 -0.015091224 0.0
0.0 0.0 0.0 0.009681346 0.0 -0.022453105 0.0 0.015984276
0.0 -0.0356033 0.020324789 0.0 0.0005735716 0.03858898 -0.020663006 0.0
-0.024215642 0.0 0.0149384625 0.008082058 0.000771357 0.0 0.0 -0.039000925
-0.02111783 0.0 0.0 0.0 0.0 0.0 0.0 0.0
-0.016887307 0.01207569 0.0 -0.03473332 0.009783269 0.0 -0.034115534 -0.0231387
0.007663472 0.0 0.0 0.0 -0.0149585735 -0.014589148 0.01841204 -0.004829724
0.0 -0.018980255 0.0 0.0 0.0 0.0112217795 0.0012496467 0.0
-0.040259425 0.013658769 0.0048659462 0.0 0.010938156 0.0 0.0 0.0
-0.004868683 0.0 0.0 0.018035822 0.0 0.0222369 -0.008353209 0.0
0.006070117 0.0031752312 -0.006314465 0.016309379 0.008786242 -0.010156842 0.018425766 0.0
0.0 -0.008290847 0.0 -0.01709124 0.0 0.0 0.0 -0.02772124
-0.017368773 0.0 0.0 0.0 0.004404101 0.0 0.0117043145 0.0
-0.02315655 -0.019871496 0.0 -0.0143894 -0.007342476 -0.011228668 0.0 -0.010804998
00000000: ff5c 40bc 6c0d 353b 6260 b6bc 602b e03b
00000010: bb41 05bd 0000 0000 0000 0000 0000 0000
00000020: 0c53 7dbc 0000 0000 1b22 773a 0000 0000
00000030: 0000 0000 b830 a13b 0187 d4bc e91b 3d3d
00000040: 0000 0000 04f1 c53c 0000 0000 0000 0000
00000050: 3119 a0bc 0000 0000 2e41 77bc 0000 0000
00000060: 0000 0000 0000 0000 0000 0000 829e 1e3c
00000070: 0000 0000 93ef b7bc 0000 0000 75f1 823c
00000080: 0000 0000 c4d4 11bd 2c80 a63c 0000 0000
00000090: bd5b 163a 7a0f 1e3d 7745 a9bc 0000 0000
000000a0: e25f c6bc 0000 0000 74c0 743c 9c6a 043c
000000b0: e434 4a3a 0000 0000 0000 0000 6fbf 1fbd
000000c0: 4dff acbc 0000 0000 0000 0000 0000 0000
000000d0: 0000 0000 0000 0000 0000 0000 0000 0000
000000e0: 4057 8abc 1dd9 453c 0000 0000 8744 0ebd
000000f0: 014a 203c 0000 0000 bbbc 0bbd 5f8d bdbc
00000100: dd1d fb3b 0000 0000 0000 0000 0000 0000
00000110: ce14 75bc 5207 6fbc d9d4 963c a942 9ebb
00000120: 0000 0000 7b7c 9bbc 0000 0000 0000 0000
00000130: 0000 0000 8edb 373c 2fcb a33a 0000 0000
00000140: 11e7 24bd 08c9 5f3c 8472 9f3b 0000 0000
00000150: f435 333c 0000 0000 0000 0000 0000 0000
00000160: 7989 9fbb 0000 0000 0000 0000 dcbf 933c
00000170: 0000 0000 292a b63c e6db 08bc 0000 0000
00000180: d5e7 c63b 8a17 503b 92e9 cebb 3f9b 853c
00000190: 2cf4 0f3c e268 26bc a2f1 963c 0000 0000
000001a0: 0000 0000 55d6 07bc 0000 0000 ee02 8cbc
000001b0: 0000 0000 0000 0000 0000 0000 a717 e3bc
000001c0: f548 8ebc 0000 0000 0000 0000 0000 0000
000001d0: 4750 903b 0000 0000 74c3 3f3c 0000 0000
000001e0: ceb2 bdbc 8cc9 a2bc 0000 0000 85c1 6bbc
000001f0: 2799 f0bb 72f8 37bc 0000 0000 7207 31bc

sequential_30_1/dense_112_1/MatMul f4 [128, 4]
-0.029096313 -0.18107589 0.059584174 -0.089417346 0.08676046 0.118784815 0.11836199 0.15946649
0.096458785 -0.032715794 0.071732365 -0.07297058 0.073897764 0.06543895 0.121421985 -0.06143672
0.20167327 0.2777597 0.017163666 -0.08004376 0.084255874 -0.0771199 -0.02761197 -0.057721213
0.11969194 0.15815961 -0.14073151 0.14171919 0.15425315 -0.0027626157 -0.1458818 -0.17133549
-0.024983915 0.15329312 0.12894215 0.058827348 0.13966507 0.18751347 -0.10425939 -0.03279139
-0.20174566 0.09037035 0.10600265 0.17081523 0.0048629045 -0.1658259 0.020488665 -0.18384352
0.1864517 -0.19790806 -0.09618376 0.13832796 -0.2573179 0.14502302 0.12179997 0.22151418
0.090879135 0.075916395 0.1931095 -0.105674095 0.46335536 -0.77482224 0.002912921 -0.0443593
-0.16704667 -0.014922053 -0.08888839 0.12262744 -0.050453037 0.1760683 0.047512885 0.17442949
-0.068127885 -0.18703805 -0.04220611 0.10561705 -0.1453686 -0.053362653 -0.13570207 -0.016637444
-0.27319583 -0.32014582 0.02882725 0.10743085 0.11769256 0.126275 -0.101599604 0.036777154
0.019653985 0.16630527 0.07871618 -0.023301426 -0.07796013 -0.046545148 -0.12525657 0.08653289
-0.20087786 -0.15909898 -0.021870151 -0.15004787 0.07064849 -0.009071052 -0.12960683 -0.064900786
0.1284925 -0.029295444 -0.11775024 0.18990827 -0.13396223 0.03865927 0.09695785 0.011098125
-0.18085964 0.030492157 -0.1913195 -0.016632512 0.037376523 0.07976591 0.14135869 -0.0049094018
-0.21191235 -0.12956774 -0.121997125 0.13042855 0.12692517 -0.12906444 -0.05395859 0.23930222
0.17440268 0.16839862 -0.02401857 -0.018481553 0.26327682 -0.18802936 0.12379978 -0.101008765
-0.20897512 -0.068828985 0.1378624 0.2358792 0.20949611 -0.07355873 -0.0013169795 -0.11989552
-0.06994069 0.22034812 0.062131237 0.119621634 -0.04993068 0.15745057 -0.06165669 0.27116936
0.29356804 -0.1779265 0.029857213 0.10672865 0.14000186 -0.01882501 0.0046187043 -0.07722171
0.06679882 -0.21158424 0.100443356 0.08196761 -0.2062696 0.193176 -0.021726593 -0.21062659
-0.033235073 0.015100988 0.04771912 0.15798517 0.2201342 0.06746131 0.11251158 0.22377384
0.058957048 0.14814393 0.11958343 0.10620375 0.17460245 0.09701499 -0.14297193 0.1608373
0.051920563 -0.1560994 -0.21201615 0.195458 -0.030466748 0.17748272 0.09914193 0.10812075
-0.047986902 0.0014219224 0.032938804 0.11231215 0.006781727 0.21267626 -0.18507262 -0.11954788
-0.0063997805 0.016917378 -0.18264787 -0.20184247 0.06419271 0.20559615 -0.14856213 0.18841243
0.20750776 0.04389152 -0.15733951 0.0153223425 -0.1431141 0.1567724 -0.08798152 0.18300948
0.09753469 -0.081798285 -0.11495063 0.04052514 0.013487041 -0.18442005 -0.042433828 -0.15860385
0.10932943 -0.10163582 0.10528031 -0.2118038 -0.2204349 -0.06728144 0.124749936 0.20120198
-0.03839022 -0.013041809 0.003838405 -0.079199955 0.13137901 -0.34199706 0.10055683 0.124434605
0.018927263 0.05405341 0.12920511 -0.13466433 -0.124433964 0.18038702 -0.055955335 -0.044916928
0.24377036 -0.103519514 0.12120678 -0.15501587 -0.07571488 -0.124295264 0.04714534 0.047791377
00000000: 645b eebc f56b 39be 890e 743d 7120 b7bd
00000010: 78af b13d 7445 f33d c567 f23d 2f4b 233e
00000020: 2f8c c53d ff00 06bd 6be8 923d 9971 95bd
00000030: b657 973d db04 863d 17ac f83d 12a5 7bbd
00000040: 7083 4e3e 8536 8e3e d19a 8c3c fced a3bd
00000050: 588e ac3d 0af1 9dbd 8032 e2bc 146d 6cbd
00000060: 0c21 f53d 98f4 213e ec1b 10be d61e 113e
00000070: 8af4 1d3e 000d 35bb 0a62 15be 9272 2fbe
00000080: 11ab ccbc dff8 1c3e 6909 043e f2f4 703d
00000090: 5c04 0f3e 8803 403e f285 d5bd 4450 06bd
000000a0: 6a96 4ebe 1714 b93d eb17 d93d 30ea 2e3e
000000b0: 0059 9f3b 44ce 29be d8d7 a73c 7a41 3cbe
000000c0: 32ed 3e3e 69a8 4abe fefb c4bd d8a5 0d3e
000000d0: 2cbf 83be ea80 143e 4372 f93d 9dd4 623e
000000e0: d71e ba3d 0e7a 9b3d 7fbe 453e a96b d8bd
000000f0: ea3c ed3e c05a 46bf b4e6 3e3b 19b2 35bd
00000100: 480e 2bbe a07b 74bc 1e0b b6bd 1824 fb3d
00000110: d8a7 4ebd 404b 343e df9c 423d a59d 323e
00000120: a286 8bbd e786 3fbe 50e0 2cbd c04d d83d
00000130: 82db 14be cc92 5abd 7cf5 0abe 404b 88bc
00000140: 53e0 8bbe 27ea a3be 2027 ec3c b504 dc3d
00000150: cc08 f13d 3c4e 013e 7413 d0bd a4a3 163d
00000160: 6501 a13c ee4b 2a3e f335 a13d a2e2 bebc
00000170: 90a9 9fbd 20a6 3ebd 4243 00be 2838 b13d
00000180: edb2 4dbe d8ea 22be 0829 b3bc 26a6 19be
00000190: 28b0 903d c09e 14bc a7b7 04be b4ea 84bd
000001a0: 8a93 033e 00fd efbc 0a27 f1bd 5077 423e
000001b0: 652d 09be 2f59 1e3d d691 c63d e9d4 353c
000001c0: 4533 39be b0ca f93c 42e9 43be e840 88bc
000001d0: 2018 193d 4f5c a33d 55c0 103e 0cdf a0bb
000001e0: 8dff 58be 68ad 04be a1d9 f9bd 108f 053e
000001f0: acf8 013e 7829 04be af03 5dbd a40b 753e
00000200: 9e96 323e b070 2c3e 98c2 c4bc a066 97bc
00000210: 38cc 863e c58a 40be bd8a fd3d afdd cebd
00000220: 93fd 55be 36f6 8cbd cd2b 0d3e 518a 713e
00000230: 2686 563e f6a5 96bd 809e acba c88b f5bd
00000240: 113d 8fbd f0a2 613e 537d 7e3d 30fc f43d
00000250: 1d84 4cbd b93a 213e ba8b 7cbd b6d6 8a3e
00000260: 8d4e 963e 5d32 36be 1d97 f43c 8d94 da3d
00000270: a65c 0f3e e836 9abc 8058 973b 6a26 9ebd
00000280: d2cd 883d 8aa9 58be 3fb5 cd3d a2de a73d
00000290: 5738 53be eecf 453e f8fb b1bc 7fae 57be
000002a0: 8021 08bd 226a 773c 2075 433d ddc6 213e
000002b0: dc6a 613e 2829 8a3d 796c e63d f824 653e
000002c0: f27c 713d 0bb3 173e 28e8 f43d 5a81 d93d
000002d0: fcca 323e ccaf c63d 3c67 12be 88b2 243e
000002e0: a8aa 543d 85d8 1fbe c31a 59be 2426 483e
000002f0: 6795 f9bc 08be 353e ed0a cb3d 696e dd3d
00000300: ea8d 44bd cc5f ba3a d7ea 063d ea03 e63d
00000310: 4039 de3b cec7 593e ad83 3dbe 85d5 f4bd
00000320: 40b5 d1bb 5096 8a3c 0b08 3bbe cbaf 4ebe
00000330: 7877 833d cc87 523e ac20 18be 30ef 403e
00000340: ea7c 543e 98c7 333d 9c1d 21be 900a 7b3c
00000350: 818c 12be f288 203e a82f b4bd d666 3b3e
00000360: 44c0 c73d dc85 a7bd 3c6b ebbd b0fd 253d
00000370: c0f8 5c3c 9cd8 3cbe 18cf 2dbd 0c69 22be
00000380: 1ce8 df3d 7126 d0bd 349d d73d 18e3 58be
00000390: b0b9 61be daca 89bd e57c ff3d e407 4e3e
000003a0: 103f 1dbd 50ad 55bc c08d 7b3b 9633 a2bd
000003b0: 3888 063e 3d1a afbe bdf0 cd3d 92d7 fe3d
000003c0: 590d 9b3c 1c67 5d3d 584e 043e 72e5 09be
000003d0: 3cd7 febd 60b7 383e 6c31 65bd d0fa 37bd
000003e0: f09e 793e 0a02 d4bd 433b f83d 7bbc 1ebe
000003f0: 6710 9bbd 848e febd 791b 413d e4c0 433d
